…
03/09/2026 12:49:19 - INFO - audiobench.model - Loaded model: /home/jinchao/runtao/LLM_base_model/MERaLiON-2-3B
2026-03-09 12:49:19 - INFO :       Loaded model: /home/jinchao/runtao/LLM_base_model/MERaLiON-2-3B
03/09/2026 12:49:19 - INFO - audiobench.model - = = = = = = = = = = = = = = = = = = = = = = = = = = = = = = = = = = = = = = = = 
2026-03-09 12:49:19 - INFO :       = = = = = = = = = = = = = = = = = = = = = = = = = = = = = = = = = = = = = = = = 
[FIX] Model is on CPU, moving to CUDA for pruning...
[INFO] Model device: cuda:0
[FIX] Patched model.get_loss to fix audio/reference handling
MERaLiON2ForConditionalGeneration(
  (speech_encoder): WhisperEncoder(
    (conv1): Conv1d(128, 1280, kernel_size=(3,), stride=(1,), padding=(1,))
    (conv2): Conv1d(1280, 1280, kernel_size=(3,), stride=(2,), padding=(1,))
    (embed_positions): Embedding(1500, 1280)
    (layers): ModuleList(
      (0-31): 32 x WhisperEncoderLayer(
        (self_attn): WhisperSdpaAttention(
          (k_proj): Linear(in_features=1280, out_features=1280, bias=False)
          (v_proj): Linear(in_features=1280, out_features=1280, bias=True)
          (q_proj): Linear(in_features=1280, out_features=1280, bias=True)
          (out_proj): Linear(in_features=1280, out_features=1280, bias=True)
        )
        (self_attn_layer_norm): LayerNorm((1280,), eps=1e-05, elementwise_affine=True)
        (activation_fn): GELUActivation()
        (fc1): Linear(in_features=1280, out_features=5120, bias=True)
        (fc2): Linear(in_features=5120, out_features=1280, bias=True)
        (final_layer_norm): LayerNorm((1280,), eps=1e-05, elementwise_affine=True)
      )
    )
    (layer_norm): LayerNorm((1280,), eps=1e-05, elementwise_affine=True)
  )
  (ln_speech): LayerNorm((1280,), eps=1e-05, elementwise_affine=True)
  (speech_audio_adapter): MERaLiON2SpeechAudioAdaperLarge(
    (mlp_adapter): Sequential(
      (0): Linear(in_features=19200, out_features=6400, bias=True)
      (1): SiLU()
      (2): Dropout(p=0.01, inplace=False)
    )
    (gate_proj): Linear(in_features=6400, out_features=6400, bias=True)
    (pool_proj): Linear(in_features=6400, out_features=6400, bias=True)
    (act_fn): SiLU()
    (out_proj): Linear(in_features=6400, out_features=2304, bias=True)
  )
  (text_decoder): Gemma2ForCausalLM(
    (model): Gemma2Model(
      (embed_tokens): Embedding(256000, 2304, padding_idx=0)
      (layers): ModuleList(
        (0-25): 26 x Gemma2DecoderLayer(
          (self_attn): Gemma2Attention(
            (q_proj): Linear(in_features=2304, out_features=2048, bias=False)
            (k_proj): Linear(in_features=2304, out_features=1024, bias=False)
            (v_proj): Linear(in_features=2304, out_features=1024, bias=False)
            (o_proj): Linear(in_features=2048, out_features=2304, bias=False)
          )
          (mlp): Gemma2MLP(
            (gate_proj): Linear(in_features=2304, out_features=9216, bias=False)
            (up_proj): Linear(in_features=2304, out_features=9216, bias=False)
            (down_proj): Linear(in_features=9216, out_features=2304, bias=False)
            (act_fn): PytorchGELUTanh()
          )
          (input_layernorm): Gemma2RMSNorm((2304,), eps=1e-06)
          (post_attention_layernorm): Gemma2RMSNorm((2304,), eps=1e-06)
          (pre_feedforward_layernorm): Gemma2RMSNorm((2304,), eps=1e-06)
          (post_feedforward_layernorm): Gemma2RMSNorm((2304,), eps=1e-06)
        )
      )
      (norm): Gemma2RMSNorm((2304,), eps=1e-06)
      (rotary_emb): Gemma2RotaryEmbedding()
    )
    (lm_head): Linear(in_features=2304, out_features=256000, bias=False)
  )
)
[DATA] Loading cached calibration data from /home/jinchao/runtao/meralion_datasets/ASR/_cached/calib_imda_part2_asr_test_21.pkl
03/09/2026 12:49:23 - INFO - root - Use taylor pruner...
2026-03-09 12:49:23 - INFO :       Use taylor pruner...
03/09/2026 12:49:23 - INFO - root - Pruning Text Attention (ratio=0.25) Layer = [0, 1, 2, 3, 4, 5, 6, 7, 8, 9, 10, 11, 12, 13, 14, 15, 16, 17, 18, 19, 20, 21, 22, 23, 24, 25]
…
Loading weights into resized layers...
Load state dict result: _IncompatibleKeys(missing_keys=['text_decoder.lm_head.weight'], unexpected_keys=[])
Tying lm_head weights to embed_tokens...
03/09/2026 12:54:57 - INFO - audiobench.model_src.meralion_2 - Model loaded: meralion_checkpoints/MERaLiON-2-3B-v2-TextBoth-25
03/09/2026 12:54:57 - INFO - audiobench.model - Loaded model: meralion_checkpoints/MERaLiON-2-3B-v2-TextBoth-25
03/09/2026 12:54:57 - INFO - audiobench.model - = = = = = = = = = = = = = = = = = = = = = = = = = = = = = = = = = = = = = = = = 
MERaLiON2ForConditionalGeneration(
  (speech_encoder): WhisperEncoder(
    (conv1): Conv1d(128, 1280, kernel_size=(3,), stride=(1,), padding=(1,))
    (conv2): Conv1d(1280, 1280, kernel_size=(3,), stride=(2,), padding=(1,))
    (embed_positions): Embedding(1500, 1280)
    (layers): ModuleList(
      (0-31): 32 x WhisperEncoderLayer(
        (self_attn): WhisperSdpaAttention(
          (k_proj): Linear(in_features=1280, out_features=1280, bias=False)
          (v_proj): Linear(in_features=1280, out_features=1280, bias=True)
          (q_proj): Linear(in_features=1280, out_features=1280, bias=True)
          (out_proj): Linear(in_features=1280, out_features=1280, bias=True)
        )
        (self_attn_layer_norm): LayerNorm((1280,), eps=1e-05, elementwise_affine=True)
        (activation_fn): GELUActivation()
        (fc1): Linear(in_features=1280, out_features=5120, bias=True)
        (fc2): Linear(in_features=5120, out_features=1280, bias=True)
        (final_layer_norm): LayerNorm((1280,), eps=1e-05, elementwise_affine=True)
      )
    )
    (layer_norm): LayerNorm((1280,), eps=1e-05, elementwise_affine=True)
  )
  (ln_speech): LayerNorm((1280,), eps=1e-05, elementwise_affine=True)
  (speech_audio_adapter): MERaLiON2SpeechAudioAdaperLarge(
    (mlp_adapter): Sequential(
      (0): Linear(in_features=19200, out_features=6400, bias=True)
      (1): SiLU()
      (2): Dropout(p=0.01, inplace=False)
    )
    (gate_proj): Linear(in_features=6400, out_features=6400, bias=True)
    (pool_proj): Linear(in_features=6400, out_features=6400, bias=True)
    (act_fn): SiLU()
    (out_proj): Linear(in_features=6400, out_features=2304, bias=True)
  )
  (text_decoder): Gemma2ForCausalLM(
    (model): Gemma2Model(
      (embed_tokens): Embedding(256000, 2304, padding_idx=0)
      (layers): ModuleList(
        (0-25): 26 x Gemma2DecoderLayer(
          (self_attn): Gemma2Attention(
            (q_proj): Linear(in_features=2304, out_features=1536, bias=False)
            (k_proj): Linear(in_features=2304, out_features=768, bias=False)
            (v_proj): Linear(in_features=2304, out_features=768, bias=False)
            (o_proj): Linear(in_features=1536, out_features=2304, bias=False)
          )
          (mlp): Gemma2MLP(
            (gate_proj): Linear(in_features=2304, out_features=6912, bias=False)
            (up_proj): Linear(in_features=2304, out_features=6912, bias=False)
            (down_proj): Linear(in_features=6912, out_features=2304, bias=False)
            (act_fn): PytorchGELUTanh()
          )
          (input_layernorm): Gemma2RMSNorm((2304,), eps=1e-06)
          (post_attention_layernorm): Gemma2RMSNorm((2304,), eps=1e-06)
          (pre_feedforward_layernorm): Gemma2RMSNorm((2304,), eps=1e-06)
          (post_feedforward_layernorm): Gemma2RMSNorm((2304,), eps=1e-06)
        )
      )
      (norm): Gemma2RMSNorm((2304,), eps=1e-06)
      (rotary_emb): Gemma2RotaryEmbedding()
    )
    (lm_head): Linear(in_features=2304, out_features=256000, bias=False)
  )
)
trainable params: 22,077,696 || all params: 2,986,889,216 || trainable%: 0.7392
[DATA] Loading cached datasets (instant)...
Map:   0%|          | 0/20000 [00:00<?, ? examples/s]Map:   0%|          | 1/20000 [00:00<5:27:00,  1.02 examples/s]Map:   0%|          | 20/20000 [00:01<13:29, 24.70 examples/s] Map:   0%|          | 34/20000 [00:0
…
