…
  "pad_token_id": 0,
  "query_pre_attn_scalar": 256,
  "rms_norm_eps": 1e-06,
  "rope_theta": 10000.0,
  "sliding_window": 4096,
  "torch_dtype": "bfloat16",
  "transformers_version": "4.54.0",
  "use_cache": true,
  "vocab_size": 256000
}

Loading state dict from /home/jinchao/runtao/LLM_base_model/MERaLiON-2-3B to detect pruned shapes...
Loading weights into resized layers...
Load state dict result: _IncompatibleKeys(missing_keys=['text_decoder.lm_head.weight'], unexpected_keys=[])
Tying lm_head weights to embed_tokens...
MERaLiON2ForConditionalGeneration(
  (speech_encoder): WhisperEncoder(
    (conv1): Conv1d(128, 1280, kernel_size=(3,), stride=(1,), padding=(1,))
    (conv2): Conv1d(1280, 1280, kernel_size=(3,), stride=(2,), padding=(1,))
    (embed_positions): Embedding(1500, 1280)
    (layers): ModuleList(
      (0-31): 32 x WhisperEncoderLayer(
        (self_attn): WhisperSdpaAttention(
          (k_proj): Linear(in_features=1280, out_features=1280, bias=False)
          (v_proj): Linear(in_features=1280, out_features=1280, bias=True)
          (q_proj): Linear(in_features=1280, out_features=1280, bias=True)
          (out_proj): Linear(in_features=1280, out_features=1280, bias=True)
        )
        (self_attn_layer_norm): LayerNorm((1280,), eps=1e-05, elementwise_affine=True)
        (activation_fn): GELUActivation()
        (fc1): Linear(in_features=1280, out_features=5120, bias=True)
        (fc2): Linear(in_features=5120, out_features=1280, bias=True)
        (final_layer_norm): LayerNorm((1280,), eps=1e-05, elementwise_affine=True)
      )
    )
    (layer_norm): LayerNorm((1280,), eps=1e-05, elementwise_affine=True)
  )
  (ln_speech): LayerNorm((1280,), eps=1e-05, elementwise_affine=True)
  (speech_audio_adapter): MERaLiON2SpeechAudioAdaperLarge(
    (mlp_adapter): Sequential(
      (0): Linear(in_features=19200, out_features=6400, bias=True)
      (1): SiLU()
      (2): Dropout(p=0.01, inplace=False)
    )
    (gate_proj): Linear(in_features=6400, out_features=6400, bias=True)
    (pool_proj): Linear(in_features=6400, out_features=6400, bias=True)
    (act_fn): SiLU()
    (out_proj): Linear(in_features=6400, out_features=2304, bias=True)
  )
  (text_decoder): Gemma2ForCausalLM(
    (model): Gemma2Model(
      (embed_tokens): Embedding(256000, 2304, padding_idx=0)
      (layers): ModuleList(
        (0-25): 26 x Gemma2DecoderLayer(
          (self_attn): Gemma2Attention(
            (q_proj): Linear(in_features=2304, out_features=2048, bias=False)
            (k_proj): Linear(in_features=2304, out_features=1024, bias=False)
            (v_proj): Linear(in_features=2304, out_features=1024, bias=False)
            (o_proj): Linear(in_features=2048, out_features=2304, bias=False)
          )
          (mlp): Gemma2MLP(
            (gate_proj): Linear(in_features=2304, out_features=9216, bias=False)
            (up_proj): Linear(in_features=2304, out_features=9216, bias=False)
            (down_proj): Linear(in_features=9216, out_features=2304, bias=False)
            (act_fn): PytorchGELUTanh()
          )
          (input_layernorm): Gemma2RMSNorm((2304,), eps=1e-06)
          (post_attention_layernorm): Gemma2RMSNorm((2304,), eps=1e-06)
          (pre_feedforward_layernorm): Gemma2RMSNorm((2304,), eps=1e-06)
          (post_feedforward_layernorm): Gemma2RMSNorm((2304,), eps=1e-06)
        )
      )
      (norm): Gemma2RMSNorm((2304,), eps=1e-06)
      (rotary_emb): Gemma2RotaryEmbedding()
    )
    (lm_head): Linear(in_features=2304, out_features=256000, bias=False)
  )
)
Map:   0%|          | 0/125326 [00:00<?, ? examples/s]Map:   0%|          | 1/125326 [00:00<31:16:22,  1.11 examples/s]Map:   0%|          | 72/125326 [00:01<21:17, 98.08 examples/s]  Map:   0%|          | 118/125326 [00:01<13:21, 156.14 examples/s]Map:   0%|          | 170/125326 [00:01<10:12, 204.39 examples/s]Map:   0%|          | 2
…
